…
tadata":{"colab":{"base_uri":"https://localhost:8080/"},"executionInfo":{"elapsed":240,"status":"ok","timestamp":1703038109825,"user":{"displayName":"임혜지","userId":"12118066242788317260"},"user_tz":-540},"id":"Wq6ZMqn3wxay","outputId":"06f30757-b9d4-4663-a078-41079ecc0673"},"outputs":[{"output_type":"stream","name":"stdout","text":["Model: \"sequential\"\n","_________________________________________________________________\n"," Layer (type)                Output Shape              Param #   \n","=================================================================\n"," inception_v3 (Functional)   (None, 2048)              21802784  \n","                                                                 \n"," dense (Dense)               (None, 128)               262272    \n","                                                                 \n"," dense_1 (Dense)             (None, 158)               20382     \n","                                                                 \n"," dense_2 (Dense)             (None, 100)               15900     \n","                                                                 \n"," dense_3 (Dense)             (None, 78)                7878      \n","                                                                 \n"," dense_4 (Dense)             (None, 95)                7505      \n","                                                                 \n"," dense_5 (Dense)             (None, 256)               24576     \n","                                                                 \n"," dense_6 (Dense)             (None, 3)                 771       \n","                                                                 \n","=================================================================\n","Total params: 22142068 (84.47 MB)\n","Trainable params: 22107636 (84.33 MB)\n","Non-trainable params: 34432 (134.50 KB)\n","_________________________________________________________________\n"]}],"source":["face_model.summary()"]},{"cell_type":"cod
…
